model/model.pth (torch, 16799 bytes, 4 tensors)

linear1.weight f4 [256, 11]
00000000: f157 5c3e 0ace 83bf c19d 32bc 80db a7bc
00000010: b07a 313f 9d5c b6be 184a 283e 141d 973e
00000020: 6d3d bebe 334b 1a3f aab6 bbbd f19a 433d
00000030: 2a05 15be 36fb 58be 2896 5cbe a0a4 52be
00000040: 174f d23d 3c61 46be 7ad1 d0bc 3947 25be
00000050: 9a3b 17be 2fd5 bb3d b6d8 df3e a9e0 d43d
00000060: 1bcd 4dbf 9a09 b1bd bc67 93bd 1b5b f43c
00000070: 4358 343e 97e2 053e 8775 e63d e996 36be
00000080: f94c 98be 2d00 c83d c125 013f 11c4 1e3d
00000090: 07cc 94bb 1bea e8be 8193 08bf 4df5 b03d
000000a0: deb8 c6bd f66b b03e b9be fb3e 5b08 88bd
000000b0: 4415 a4bb d276 02bf f5ad 2f3e ec33 053f
000000c0: f1ac c1be b458 b1be f053 85bb a6ba e4be
000000d0: 6499 e5bd 3b99 953e f859 0bbf bb5f b83e
000000e0: a310 1a3f 6daf e03e fa60 06be dd5f 05bf
000000f0: f819 a8be 3d5a 9e3d e311 83be 4f15 8fbd
00000100: 6f39 44be 3944 37be 4baf f0bc eea8 02bf
00000110: 7a01 bd3d 4d5d 033f f183 c3be 67d1 44be
00000120: 88fb a2bd e084 e1be 6dda 053f 2597 07bf
00000130: 673a 15bf a839 e93e 7fcd d23e 45c6 cf3d
00000140: 10fa a7bd 14ac 9dbe 480f f5bd 7e57 a3be
00000150: 2a82 8e3e b601 9f3e 0983 3d3e 280a e73e
00000160: 1e93 f23d 7501 193f 0667 ddbe 71b0 e83d
00000170: 4c9e 4c3b 529a d83c f079 50bd c181 1a3e
00000180: d2b9 463e eeae b33e 0c74 923e 665b 273e
00000190: 6238 0fbf 6b8a a4be 532b 39bf c8dd ac3e
000001a0: 877a a2bd a179 a2be 2616 43bf 6ac4 a63e
000001b0: 4d1c 14bf f22b 26bf e545 d53c 1430 04bf
000001c0: 50c7 14bf 8b90 c63e eb88 cc3b 7445 9b3e
000001d0: 9643 07bf 6708 4fbe 377e 193e d0da b3be
000001e0: 10a6 083f fd94 bbbe 0c59 0c3f 0963 813e
000001f0: 5fde a13d 15d5 953e 917a 61be 048e 80be
00000200: 4778 df3e b8ce d83e a0ee f83d 6735 6fbe
00000210: b784 0b3f 12f8 42bd 0501 77bd 39bd 533e
00000220: 1370 26be a033 0dbf 1966 e03e 6ee4 81be
00000230: ff24 b73d 1378 e33e 8bc1 10bf 47fd b33e
00000240: a453 33bf 7894 b93e 9e9c 9d3e 0582 9a3d
00000250: 6560 823e d10b b6be 97c3 94be bdfd e23d
00000260: cc18 55be 73ea d43e dd41 763e 2faa a5be
00000270: b91d 123d ab98 57be 3928 13be 6330 2abe
00000280: 3055 88be 2caf 1e3d e0e2 1a3d 56fd c0ba
00000290: 9810 083e 4c82 583e 0d74 97bb 7822 913d
000002a0: 126b e13d 92fc 3abe 2f8f 81bc ea55 3ebe
000002b0: e9b1 aebe f137 f2bd 613e 56be 3fd7 81bd
000002c0: 9d3d 9d3e ff73 f43c 9aa8 7fbf 767a dc3e
000002d0: ee15 39bb a452 b73e c7c7 a6be 9330 59bd
000002e0: 44ea 8f3e 354b eebd 5e49 fb3e ac1c cf3d
000002f0: 8565 ce3d c92a a03e 1495 11be 851a b1bc
00000300: e4ad a5bb e354 e7bd 3e4e 223e 91f6 88bd
00000310: b098 1e3e 8411 993d 9837 023f fc93 6bbe
00000320: c257 e1bd f50f 8c3e e744 76be 29f3 92be
00000330: 36cd 8bbd 081e c7be 480d a63d 0fb3 97bd
00000340: c7a2 30be 4c99 c13e a785 a5bc 6f14 2bbd
00000350: f297 bc3d 43dc 3dbe 59e6 18be 84db 61be
00000360: 1803 a03e 3c42 1d3f a380 0f3f f800 1a3f
00000370: 03bf 283e 7bbe 433f 13a8 40bd b07b a63d
00000380: fca7 2cbe 00ff 2c3e 4f0f e7be 5e30 483e
00000390: dcdd 70be fd50 6fbe ae75 713c 7a56 08be
000003a0: 3114 68be a8d9 f83e e058 bc3d 6b99 ac3e
000003b0: d936 2abf cc59 ba3e 990c cb3d 2acf 7abd
000003c0: 85ad 31bf b433 923c 7e5f 413e b8f5 cc3e
000003d0: 5383 7a3e 1bc8 3cbe 2f20 d2be fe22 02be
000003e0: c6c0 a0be c5a9 3abe 203e 43ba f1a3 4bbe
000003f0: f473 483d be78 00be 5c15 f3be 9b0b 8d3e
0.21517922 -1.0297253 -0.010901869 -0.020490408 0.6932783 -0.35617533 0.16434515 0.29514372
-0.3715624 0.60270995 -0.091657 0.047755186 -0.14552751 -0.2118958 -0.21541655 -0.20570612
0.102689914 -0.1937303 -0.025490511 -0.1614045 -0.1476883 0.09171521 0.43720025 0.10394413
-0.8039109 -0.086444095 -0.0719752 0.029828599 0.17611794 0.13074718 0.11252885 -0.17831005
-0.29746225 0.097656585 0.5044823 0.038761202 -0.0045409235 -0.45491108 -0.53350073 0.086405374
-0.09703229 0.34457368 0.49168947 -0.06642219 -0.005007418 -0.50962555 0.17156203 0.5203235
-0.37827256 -0.34637988 -0.004068844 -0.4467365 -0.112108976 0.29218468 -0.54434156 0.36010537
0.60181636 0.4388384 -0.13122931 -0.520994 -0.32832313 0.07732055 -0.25599584 -0.06986486
-0.19162534 -0.17897119 -0.029380461 -0.51039016 0.09228797 0.5131424 -0.381866 -0.19220506
-0.07958132 -0.44046688 0.52286416 -0.52965003 -0.5829224 0.455518 0.41172406 0.10145239
-0.082019925 -0.30795348 -0.11965805 -0.3190269 0.27833682 0.31055993 0.18507017 0.45124936
0.118444666 0.5976785 -0.43242663 0.113617785 0.0031222282 0.026440773 -0.05089754 0.1508856
0.19406822 0.35094398 0.28604162 0.1634346 -0.5594541 -0.32136855 -0.7233173 0.33762956
-0.079335265 -0.3173342 -0.7620567 0.32571727 -0.57855684 -0.64910805 0.026034305 -0.5163586
-0.58116627 0.38782153 0.006241908 0.30326426 -0.528375 -0.20218049 0.14989553 -0.35127878
0.5337839 -0.36637107 0.54823375 0.2527087 0.07903742 0.2926413 -0.22019412 -0.2510835
0.43646452 0.42345214 0.12154889 -0.23360215 0.5449938 -0.04759986 -0.060303707 0.20677651
-0.1625369 -0.551569 0.43827894 -0.2536959 0.08942603 0.44427547 -0.56545323 0.35154173
-0.700495 0.36246085 0.30783552 0.075443305 0.25464168 -0.3555589 -0.29055473 0.11083553
-0.2081024 0.4158512 0.24048562 -0.32356402 0.035672877 -0.21054332 -0.14370812 -0.1662002
-0.26627493 0.038741276 0.03781402 -0.0014723937 0.1328758 0.21143454 -0.0046219886 0.070866525
0.1100675 -0.1826041 -0.015815346 -0.18587461 -0.3412011 -0.11827076 -0.20922233 -0.06339883
0.3071107 0.029840467 -0.9986664 0.4306218 -0.002824183 0.35805237 -0.32574293 -0.05302484
0.28108418 -0.11635438 0.49079412 0.101128906 0.10077957 0.31282642 -0.14217025 -0.02161909
-0.00505613 -0.11295488 0.1585016 -0.06687654 0.15487933 0.07474044 0.5086608 -0.2300567
-0.110030666 0.27355924 -0.24049722 -0.2870114 -0.0682625 -0.388901 0.08108002 -0.074071996
-0.17249595 0.3781227 -0.020205332 -0.041767534 0.09208669 -0.18541054 -0.1493162 -0.22056395
0.3125236 0.6142919 0.5605566 0.6015773 0.16479115 0.76462525 -0.047035288 0.0812906
-0.16860956 0.1689415 -0.45128867 0.195497 -0.23522133 -0.23370738 0.01473753 -0.13314238
-0.22663952 0.4860356 0.09196639 0.337108 -0.6648994 0.36396635 0.09914512 -0.061232723
-0.69405395 0.01784692 0.18884084 0.4003122 0.24464159 -0.18435709 -0.4104018 -0.12708661
-0.31397074 -0.18228824 -0.0007447917 -0.19886757 0.048938707 -0.1254606 -0.47477233 0.27547917

linear1.bias f4 [256]
00000000: 9f2d a5be 3412 c2be 65fa 41bd 920b c3bd
00000010: 506e 3ebe 02be 9bbe 9384 8cbd 9684 4fbe
00000020: 5079 4fbe 5a32 423e 4473 54be 5b2f 6ebe
00000030: 3639 9c3d 4a2f 4dbe 6eca 9dbe 5d19 a8be
00000040: 5fca dbbe 94ac 08bf b7e1 d73d 8851 f7be
00000050: d1b0 b63d bcd0 fe3e 5dcb 9bbe d53d c8be
00000060: 61d9 c9bd a671 f1bc 3cc5 7b3e 9176 de3d
00000070: f576 88be 7ea6 9d3d 007f 47bd a9bc cdbd
00000080: b9b5 82be a77a 00bf 1fec a8be 1844 70bd
00000090: 9857 20bd 0016 babd 3112 17be 2baf 69be
000000a0: adc8 8e3d a19c 1a3f 0fff a63d c520 94be
000000b0: 4508 7c3e 8f9f 55be 3ce3 f4bc 00df 63be
000000c0: bc69 bbbe 6be3 89be 9cc8 63be 7a41 27be
000000d0: 1646 40be 398e 853d f5fe cebe 923e 7a3d
000000e0: 77b5 a5bd 3f13 1ebf 2056 11be 0864 373e
000000f0: 4dd5 20be 12d8 b7be 0070 b3be a552 c1be
00000100: 88ca 743d 767c 6dbc d8c0 84be e892 f4bc
00000110: e633 eabd 1aa0 fabe db65 173f 810e f7be
00000120: a1e3 11be d2b5 43be bdbf 3f3d 574f eabe
00000130: 30f2 2abe 3957 9cbd 83e9 cbbe d16e a7be
00000140: f0cd e4be f2e9 f9be ce19 64be 5491 0dbd
00000150: 5c15 6fbe fea1 843e e2a4 89be 2b09 92bc
00000160: f99b d5be 53fa 9dbd 5068 6dbe 7e81 a1bd
00000170: 97e4 8f3d a15c dcbc 376a 39be 6694 dabe
00000180: 827b c3be 1ebb d1be c79c 21be 0f04 ecbd
00000190: 0a63 2fbd 677a 293f f44b a4be a48e b5bd
000001a0: 4091 ce3c 6794 9dbd c9a6 d9be 4ed0 65be
000001b0: f5e9 b1be 1d22 c8bc 1586 bebe e6e4 adbd
000001c0: 5f69 e6bd d7f3 1f3e 6d57 9abe b5c9 34be
000001d0: d0ef d73e 726c 12bc 2196 3b39 4953 86bd
000001e0: 257c 81be db7f 77be 3f0b 29be a0f0 a53d
000001f0: d229 96be cf4a 73be 06c0 49be 40ad 26be
00000200: 4ded 82bd c8b2 a4be d875 fcbd ea3f 103d
00000210: 5efa 22be 81cd 39be 2ac6 abbe d6a1 a5be
00000220: 7199 523d 181a ef3e 4a9a cebe 8cae 2abe
00000230: 6c17 39be dc21 803e cb5e a8be a27c d83e
00000240: bab1 d73d adc1 0bbd 1f84 243e 74f3 c9bd
00000250: 2c18 0dbe 15b9 edbd 17e1 adbe 1420 e2be
00000260: b52f f0bd 6a6b 1fbe 04a2 a13e a105 d83d
00000270: 0242 91be 6036 2e3e b065 b73d 49f3 753e
00000280: ee89 95be b50e 9bbd 5ea5 063d 7d3c 30be
00000290: fc63 3dbe 2e65 74be d40a 94be 5353 a23b
000002a0: a793 0d3f 9f3d 59be b2fb 8f3d fb25 073e
000002b0: adf8 0e3e f3b6 92be 6723 9cbe 7e08 96bd
000002c0: 0bc6 aebe e265 a6be 4e26 01bf 1264 32be
000002d0: c2b2 b2be d246 a5be ee6b ddbd 3c56 43be
000002e0: 62e4 7dbe 9098 bdbe 9cc5 adbe 194a febd
000002f0: d2fa b2bd 99d5 1dbd 1691 09bf f2dd f13d
00000300: 501e 9ebe 7b7d b7be fec3 93be 5e00 363e
00000310: 82a3 f1be f38d ecbb 25fa ea3d 1e5d edbe
00000320: ce17 4b3c 910a e2be 8501 c8bd 4e5b b6bd
00000330: 324d 823e ef5b 6cbe b6a6 493e 5422 5c3d
00000340: d354 b0be 5b83 2abe 929c ecbd 25b1 5ebe
00000350: f617 f1bd fcee eb3e 4f39 893e 826c 8ebe
00000360: 1076 59bc 71c0 a23e 1205 74be 03b5 093f
00000370: 5dd7 ab3b a7cc 58be 40a9 253d f8ed e4be
00000380: c03b 89be c8d4 cc3e 12f9 d0bd 667e 1b3e
00000390: 2ad8 4cbe 808c eebe 8493 87bd 9896 cbbe
000003a0: 9bbf 0c3e ebf2 003e 20d2 d7be cd31 99bd
000003b0: d6b5 28bf af61 8b3c db72 423e 77af a0be
000003c0: 41c4 abbe 4759 eabe 4619 35be 086b cbbd
000003d0: a2a8 0dbd e38e e03e 144d 4a3d 3493 98be
000003e0: 2827 4dbe deab bf3e 6c7a 5cbe 0a58 93be
000003f0: 181d c23d fd5d fa3e 464d c13e 0cd8 95be
-0.3226137 -0.37904513 -0.047357935 -0.09523691 -0.18596768 -0.30418402 -0.06861224 -0.20265421
-0.20261121 0.1896452 -0.20747095 -0.23260252 0.076280996 -0.2003757 -0.30818504 -0.3283185
-0.42927834 -0.53388333 0.105410986 -0.4830439 0.08920444 0.49768627 -0.3042859 -0.39109674
-0.09855915 -0.029473137 0.24586958 0.108624585 -0.26653257 0.076977715 -0.0487051 -0.1004575
-0.25529268 -0.5018715 -0.32992646 -0.05865869 -0.039146036 -0.090862274 -0.14753033 -0.22820728
0.069718696 0.60395247 0.08154117 -0.2893125 0.2461253 -0.20861648 -0.02989351 -0.22253036
-0.36604106 -0.2693132 -0.22244495 -0.16333571 -0.18776736 0.065212674 -0.40428892 0.061094828
-0.08091252 -0.6174812 -0.1419301 0.17909253 -0.15706368 -0.35907036 -0.35046387 -0.37758365
0.05976346 -0.014495006 -0.25928378 -0.029855207 -0.1143568 -0.48950273 0.59139794 -0.48253253
-0.1424699 -0.19112328 0.046813715 -0.45763656 -0.1669395 -0.07633824 -0.39826593 -0.32701734
-0.44688368 -0.488113 -0.22275469 -0.034562424 -0.23347992 0.2590484 -0.26883608 -0.017826637
-0.4172056 -0.07713761 -0.23184323 -0.07886027 0.07026022 -0.026899638 -0.18106924 -0.42691344
-0.38180166 -0.40963072 -0.15782462 -0.115242116 -0.04281906 0.66202396 -0.32089198 -0.08865097
0.025215745 -0.07694321 -0.4251006 -0.22442743 -0.34748808 -0.024430329 -0.3721167 -0.084909245
-0.11250567 0.15620361 -0.30144826 -0.1765507 0.4217515 -0.008936988 0.00017889637 -0.06558854
-0.25290027 -0.24169867 -0.16508196 0.08102536 -0.2932878 -0.23759006 -0.19702157 -0.16277027
-0.06392918 -0.3216765 -0.123271644 0.035217203 -0.1591582 -0.181448 -0.33549625 -0.32350034
0.051415864 0.46699595 -0.40352088 -0.16668147 -0.18075341 0.25025833 -0.3288482 0.42282587
0.105319455 -0.03412025 0.16066025 -0.09860888 -0.13778752 -0.11607567 -0.33960792 -0.441651
-0.117278494 -0.15568319 0.3156892 0.10547949 -0.28370672 0.1701293 0.08954942 0.24018587
-0.29206795 -0.075711645 0.03287255 -0.17210574 -0.18495172 -0.23866722 -0.2891451 0.0049537807
0.55303425 -0.21214913 0.07030429 0.13198082 0.1396205 -0.28655204 -0.3049576 -0.073258385
-0.3413547 -0.32499605 -0.50449073 -0.17420986 -0.34902006 -0.32280594 -0.108116016 -0.19075865
-0.24794152 -0.37030458 -0.33939826 -0.12416477 -0.087392464 -0.03853378 -0.5373701 0.11809911
-0.30882502 -0.35837922 -0.28860468 0.17773578 -0.4719506 -0.00721907 0.114734925 -0.46360105
0.012395812 -0.44148687 -0.09765915 -0.08904134 0.2544952 -0.23081945 0.19692501 0.053743675
-0.34439716 -0.1665167 -0.11553301 -0.21747263 -0.11772148 0.46080768 0.26801535 -0.2781716
-0.013272777 0.31787446 -0.23830059 0.53791827 0.005244179 -0.21171819 0.040444613 -0.44712806
-0.26803398 0.4000609 -0.102037564 0.15184936 -0.20004335 -0.46591568 -0.06619933 -0.3976333
0.13744967 0.12592666 -0.421525 -0.07480202 -0.6590246 0.017014353 0.18989126 -0.3138387
-0.33548167 -0.45771238 -0.17685422 -0.09932524 -0.03458465 0.43859014 0.049389914 -0.29799807
-0.20034468 0.37435812 -0.21531075 -0.28778106 0.094782054 0.48899832 0.37754267 -0.29266393

linear2.weight f4 [3, 256]
00000000: 6cf0 e4be 4298 423a bcc8 55bc 4dbf 76be
00000010: 8c40 5fbe 76f8 0abc 51c3 d3be d49b 8bbd
00000020: f21d d1bc d716 cc3e a12a c3be 8ecb c83d
00000030: 0972 d2be 7ff7 f9bd 8ae9 a93c 53af 6739
00000040: 7b05 2ebe 32ed 083d 272b 5ebe b9b8 9fbe
00000050: 8222 0f3d c3e6 ba3e 00d6 e13d 59f6 80bc
00000060: 7d20 8dbc df3e 17bf 876f b33e abe9 ff3e
00000070: 3b4c dfbc 3f5f f1be 6ba5 28bc c31f 03be
00000080: aa58 a33c 8b72 3abd d251 633e f974 cbbe
00000090: e0c4 993c 768a a93c 7591 1b3e 73d0 bdbe
000000a0: 7ec4 b53e c944 083f 5336 ae3e 2c17 72be
000000b0: a3f0 e23e 748d b5bd 01d9 d8bd 3612 56bd
000000c0: 338e 01bd a0c3 1a3b 75c5 d83b 1933 cf3e
000000d0: 68f1 b4bc 730c cb3d 1669 cbbe 01c1 acbc
000000e0: 5bf0 15bf e30a 26be 1c55 84be 773d b03d
000000f0: 6ce4 193c 96c7 b2bd 8b97 97bd 28b5 9ebd
00000100: c48b 2c3d 22dc 80be ff21 6cba 74fd e23c
00000110: 574c 29bd 5919 413c 57e5 fc3e a5ed 19bd
00000120: f06b 58bd 34e0 913d 3317 e73e 1ee1 a5bd
00000130: 44a1 2d3c 9358 603c 4a37 bbbd 589c 91be
00000140: 9415 88bd 651c f6bd dab7 c6be 16ce 02bf
00000150: b5b7 69bc e29d 563e e57f 2d3b 66dc 3c3e
00000160: b035 583d c068 68bd 24af 223e 2787 0ebf
00000170: 3db9 da3d d9c1 a73b 8032 5b3b eff8 77bd
00000180: dd7d 47be 5197 983d a6b0 42be 62ac 08bc
00000190: 9bb8 f63e ca55 cd3e d45d 75bd b0c1 34bf
000001a0: f144 893d 5c9e a1be 7cb0 ec3b 38cf c3bd
000001b0: 2ec8 14bd 4403 313d dab8 a43d 853e 7dbe
000001c0: 690c 973d e25b f93e fcef ffbd 9bfe 0ebf
000001d0: dd1a b03e c97a c9be c180 6f3e b48a a93d
000001e0: 2869 b0bd 7957 2abc cd4c 13bd 8f76 b5be
000001f0: 128c cd3a f0c5 023d f2bf 963b ce16 4dbd
00000200: 67e5 723d 41ce ae3d 9960 2e3e 9596 dd3e
00000210: b6c7 673e 08a9 84bd e9b9 d6be 75e2 0cbd
00000220: a161 b13e f073 6b3e 43db 85bd 1b02 e33c
00000230: 2e42 82be 90e0 a83e ec6f afbe 3c7d 1a3e
00000240: 4543 d4bc 294f abbe daf1 28bd f3b8 a93e
00000250: 1451 03bf 4ed8 8fba c4a3 62bd c2b6 1dbe
00000260: ea31 2f3d e70a dabe 5621 c93d 7f3f 083e
00000270: 7420 91bc d3fd 65bc c860 3cbd 7c05 333e
00000280: 9bbc 383d 482c 893e 01b0 4e3e b94c afbe
00000290: bacb aabe a606 843d bbeb c1bd d374 24be
000002a0: 3f4e f83e 2a62 d5be 5700 f43e f14b 71bd
000002b0: 883e a83d 8c1a 02be 7f16 59be 859b 75bd
000002c0: 4f17 42bd 1358 8fba 83b1 79be 871a 92bc
000002d0: 206a 6abc df42 7e3d 1c1d 91be bf5c b6bc
000002e0: 4a8f 2dbd 5726 8abd 0985 a53c 1eae 46be
000002f0: eca3 13bf 71e6 9bbe c43c a2be 5f81 eb3e
00000300: 8095 c7bc 055f 383c 5001 dbbc 4101 fa3e
00000310: 0278 0bbd 32a4 723e 991f 7ebd e5aa c3bb
00000320: 24f9 b3be 99fb 73bd 6499 8bbe f877 22be
00000330: 4b30 873e a09a 8d3b 2afd 433f 24d1 903d
00000340: 1517 213e 6f69 9e3c 9760 d7be 2b4d aa3c
00000350: 98a9 6b3e 8d29 a13e 980f 293e 8136 0f3d
00000360: db06 96be ed09 db3d 68d2 70be bc89 ee3e
00000370: bb15 18bd 8a2b 99be 5f63 013f 620c a23c
00000380: 3f45 8fbe 0602 0f3f 503a 22be 9cf8 813e
00000390: 5345 023d 8ee0 9fbe 30b2 c03e 14d2 a0bb
000003a0: e2b1 b2be c0a5 773e a277 0abe b848 733b
000003b0: 9222 20bc 1b99 2cbf be75 d63e 5c9c 8abc
000003c0: 9f09 b8be a377 04bd 4df5 4abe c359 b3be
000003d0: a074 423c 6bed 023f 3d1e 61be 5692 86be
000003e0: a845 633e 4807 763e ccda adbd 118c 90bb
000003f0: 3f8e 8bbe 35f6 853e e112 c83d f4b3 5c3d
-0.44714677 0.0007423201 -0.013048347 -0.24096413 -0.21801966 -0.008482089 -0.41359952 -0.06816831
-0.025526974 0.39861175 -0.3811846 0.0980445 -0.41102627 -0.12205409 0.020741243 0.0002209519
-0.16994278 0.033429332 -0.21696149 -0.3119562 0.03494502 0.36504182 0.110271454 -0.015742468
-0.017227406 -0.5908031 0.35046026 0.49982962 -0.02725803 -0.4714298 -0.010293345 -0.12805085
0.01993974 -0.045519393 0.2219918 -0.3973768 0.018770635 0.020695906 0.15192206 -0.37073097
0.35501474 0.5322996 0.3402582 -0.23641652 0.44324216 -0.08864871 -0.10588265 -0.05226346
-0.031629752 0.0023615137 0.0066153356 0.40468672 -0.022087768 0.09914484 -0.39728612 -0.021088125
-0.5856988 -0.1621509 -0.25846183 0.086054735 0.009392839 -0.08729474 -0.074019514 -0.077493966
0.04212548 -0.25167948 -0.00090077514 0.027708746 -0.04133257 0.0117858285 0.49393722 -0.03758015
-0.052837312 0.071228415 0.45134887 -0.08099578 0.010597531 0.013692993 -0.09141405 -0.28439593
-0.06644741 -0.120171346 -0.38812143 -0.5109571 -0.014264991 0.20958665 0.0026473936 0.1844345
0.052785575 -0.056740522 0.15887123 -0.55674976 0.10679863 0.005119544 0.0033446848 -0.060540136
-0.19481607 0.07450736 -0.19012699 -0.0083418805 0.48187718 0.40104514 -0.059903935 -0.70608044
0.06702603 -0.3156613 0.007223187 -0.09561008 -0.03632372 0.043216005 0.0804307 -0.2473088
0.07375414 0.48702914 -0.12496945 -0.5585725 0.34395495 -0.3935149 0.2338896 0.08278409
-0.08613807 -0.010396832 -0.035961915 -0.35442016 0.0015682003 0.03192705 0.0046005184 -0.050070576
0.059300806 0.085354336 0.17029037 0.43278947 0.22634777 -0.06477553 -0.41938713 -0.034395654
0.34644797 0.22993445 -0.065359615 0.027710965 -0.25441116 0.32983828 -0.34265077 0.15086836
-0.025910983 -0.33458832 -0.041246273 0.33148918 -0.5129559 -0.0010974498 -0.05533196 -0.15401748
0.04277221 -0.42586443 0.098208115 0.13305472 -0.01771567 -0.014037567 -0.045990735 0.17482561
0.045101743 0.26791596 0.20184328 -0.34238222 -0.33358556 0.064465806 -0.0946879 -0.1606019
0.48497197 -0.41676456 0.4765651 -0.058910314 0.08215052 -0.1270544 -0.21199988 -0.059962768
-0.04738551 -0.0010936282 -0.24384122 -0.017834915 -0.014307529 0.062075492 -0.2834252 -0.022261022
-0.04237298 -0.06745594 0.020205038 -0.19402358 -0.57672 -0.3044925 -0.31686985 0.4599714
-0.02436328 0.011253123 -0.026734024 0.48829082 -0.034049995 0.23695448 -0.062041853 -0.0059713
-0.35151017 -0.059566114 -0.27265465 -0.15866077 0.26404032 0.0043214113 0.7655817 0.070711404
0.15731461 0.019337384 -0.4206588 0.02078875 0.23013914 0.31477013 0.16509855 0.03496409
-0.29302105 0.106952526 -0.23517764 0.46589458 -0.0371301 -0.2991603 0.50542253 0.019781295
-0.27982518 0.5586246 -0.15842557 0.25384986 0.031804394 -0.3122601 0.37635946 -0.0049078558
-0.3490134 0.24184322 -0.13522199 0.0037122201 -0.009773867 -0.6742112 0.41886705 -0.016920261
-0.3594484 -0.032340657 -0.19820137 -0.3502942 0.011868626 0.5114352 -0.21984191 -0.2628352
0.2219454 0.24026215 -0.08488998 -0.0044112285 -0.27256963 0.26164404 0.09769226 0.053882554

linear2.bias f4 [3]
00000000: f272 c93e 112e 043d d710 8b3d
0.3934551 0.032270495 0.06790321
